…
Namespace(env='RememberColor9-v0', model='RememberColor9-v0_cvae_mikasa_final', seed=1, log_interval=1, save_interval=50, data_path='data/collect_RememberColor9-v0.pt', save_dir='storage_cvae', rep_model_path='storage/RememberColor9_final-v0/final_model.pt', optim_eps=1e-08, epochs=8000, batch_size=256, lr=0.0003, latent_dim=32, beta=1.0, lambda_action=1.0, state_sentinel=1000.0, state_sentinel_replace=None)

Device: cuda

Loading data from data/collect_RememberColor9-v0.pt...
Data shapes:
  obss: torch.Size([5000, 60, 128, 128, 3])
  states: torch.Size([5000, 60, 28])
Loading Rep Model from storage/RememberColor9_final-v0/final_model.pt
[state_preprocess] replacing state sentinel 1000.0 -> 1.0 (count=25000)
Model loaded:
BeliefVAEModel(
  (history_model): HistoryEncoder(
    (image_conv): ImageEncoder(
      (cnn): Sequential(
        (0): Conv2d(3, 32, kernel_size=(8, 8), stride=(4, 4))
        (1): ReLU()
        (2): Conv2d(32, 64, kernel_size=(4, 4), stride=(2, 2))
        (3): ReLU()
        (4): Conv2d(64, 64, kernel_size=(3, 3), stride=(1, 1))
        (5): ReLU()
        (6): Flatten(start_dim=1, end_dim=-1)
      )
      (fc): Sequential(
        (0): Linear(in_features=9216, out_features=512, bias=True)
        (1): ReLU()
      )
    )
    (memory_rnn1): GRUCell(512, 256)
    (memory_rnn2): GRUCell(256, 256)
    (memory_rnn3): GRUCell(256, 256)
    (predictor): Sequential(
      (0): Linear(in_features=768, out_features=256, bias=True)
      (1): ReLU()
      (2): Linear(in_features=256, out_features=256, bias=True)
    )
  )
  (vae_encoder): Sequential(
    (0): Linear(in_features=272, out_features=256, bias=True)
    (1): ReLU()
    (2): Linear(in_features=256, out_features=256, bias=True)
    (3): ReLU()
    (4): Linear(in_features=256, out_features=64, bias=True)
  )
  (vae_decoder): Sequential(
    (0): Linear(in_features=288, out_features=256, bias=True)
    (1): ReLU()
    (2): Linear(in_features=256, out_features=256, bias=True)
    (3): ReLU()
    (4): Linear(in_features=256, out_features=32, bias=True)
  )
  (prior_net): Sequential(
    (0): Linear(in_features=256, out_features=256, bias=True)
    (1): ReLU()
    (2): Linear(in_features=256, out_features=64, bias=True)
  )
)

Epoch 0 | Update 1 | ELBO: 27.2451 | ReconNLL: 16.3151 | KL: 0.2479 | ActionFM: 10.6821 | Grad: 5.2586 | Valid steps: 15360.0
Epoch 1 | Update 2 | ELBO: 27.3201 | ReconNLL: 16.4225 | KL: 0.1821 | ActionFM: 10.7155 | Grad: 4.8360 | Valid steps: 15360.0
Epoch 2 | Update 3 | ELBO: 26.8114 | ReconNLL: 16.0333 | KL: 0.1600 | ActionFM: 10.6180 | Grad: 4.9421 | Valid steps: 15360.0
…
