…
ochs=8000, batch_size=256, lr=0.0003, latent_dim=32, beta=1.0, lambda_action=5.0, state_sentinel=1000.0, state_sentinel_replace=None)

Device: cuda

Loading data from data/collect_RememberShapeAndColor3x2-v0_expert.pt...
Data shapes:
  obss: torch.Size([5000, 60, 128, 128, 3])
  states: torch.Size([5000, 60, 20])
Loading Rep Model from storage/RememberShapeAndColor3x2_expert-v0/final_model.pt
[state_preprocess] replacing state sentinel 1000.0 -> 1.0 (count=25000)
Model loaded:
BeliefVAEModel(
  (history_model): HistoryEncoder(
    (image_conv): ImageEncoder(
      (cnn): Sequential(
        (0): Conv2d(3, 32, kernel_size=(8, 8), stride=(4, 4))
        (1): ReLU()
        (2): Conv2d(32, 64, kernel_size=(4, 4), stride=(2, 2))
        (3): ReLU()
        (4): Conv2d(64, 64, kernel_size=(3, 3), stride=(1, 1))
        (5): ReLU()
        (6): Flatten(start_dim=1, end_dim=-1)
      )
      (fc): Sequential(
        (0): Linear(in_features=9216, out_features=512, bias=True)
        (1): ReLU()
      )
    )
    (memory_rnn1): GRUCell(512, 256)
    (memory_rnn2): GRUCell(256, 256)
    (memory_rnn3): GRUCell(256, 256)
    (predictor): Sequential(
      (0): Linear(in_features=768, out_features=256, bias=True)
      (1): ReLU()
      (2): Linear(in_features=256, out_features=256, bias=True)
    )
  )
  (vae_encoder): Sequential(
    (0): Linear(in_features=272, out_features=256, bias=True)
    (1): ReLU()
    (2): Linear(in_features=256, out_features=256, bias=True)
    (3): ReLU()
    (4): Linear(in_features=256, out_features=64, bias=True)
  )
  (vae_decoder): Sequential(
    (0): Linear(in_features=288, out_features=256, bias=True)
    (1): ReLU()
    (2): Linear(in_features=256, out_features=256, bias=True)
    (3): ReLU()
    (4): Linear(in_features=256, out_features=32, bias=True)
  )
  (prior_net): Sequential(
    (0): Linear(in_features=256, out_features=256, bias=True)
    (1): ReLU()
    (2): Linear(in_features=256, out_features=64, bias=True)
  )
)

Epoch 0 | Update 1 | ELBO: 57.3147 | ReconNLL: 12.0227 | KL: 0.0947 | ActionFM: 9.0395 | Grad: 6.6695 | Valid steps: 15360.0
Epoch 1 | Update 2 | ELBO: 56.7419 | ReconNLL: 11.5618 | KL: 0.1357 | ActionFM: 9.0089 | Grad: 7.0638 | Valid steps: 15360.0
Epoch 2 | Update 3 | ELBO: 55.5967 | ReconNLL: 10.9874 | KL: 0.3263 | ActionFM: 8.8566 | Grad: 10.1126 | Valid steps: 15360.0
…
