…
e-08, epochs=10000, batch_size=256, lr=0.0003, latent_dim=32, beta=1.0, lambda_action=1.0, state_sentinel=1000.0, state_sentinel_replace=1.0)

Device: cuda

Loading data from data/collect_RememberShapeAndColor3x2-v0.pt...
Data shapes:
  obss: torch.Size([5000, 60, 128, 128, 3])
  states: torch.Size([5000, 60, 20])
Loading Rep Model from storage/RememberShapeAndColor3x2-v0_last3/final_model.pt
[state_preprocess] replacing state sentinel 1000.0 -> 1.0 (count=25000)
Model loaded:
BeliefVAEModel(
  (history_model): HistoryEncoder(
    (image_conv): ImageEncoder(
      (cnn): Sequential(
        (0): Conv2d(3, 32, kernel_size=(8, 8), stride=(4, 4))
        (1): ReLU()
        (2): Conv2d(32, 64, kernel_size=(4, 4), stride=(2, 2))
        (3): ReLU()
        (4): Conv2d(64, 64, kernel_size=(3, 3), stride=(1, 1))
        (5): ReLU()
        (6): Flatten(start_dim=1, end_dim=-1)
      )
      (fc): Sequential(
        (0): Linear(in_features=9216, out_features=512, bias=True)
        (1): ReLU()
      )
    )
    (memory_rnn1): GRUCell(512, 256)
    (memory_rnn2): GRUCell(256, 256)
    (memory_rnn3): GRUCell(256, 256)
    (predictor): Sequential(
      (0): Linear(in_features=768, out_features=256, bias=True)
      (1): ReLU()
      (2): Linear(in_features=256, out_features=256, bias=True)
    )
  )
  (vae_encoder): Sequential(
    (0): Linear(in_features=272, out_features=256, bias=True)
    (1): ReLU()
    (2): Linear(in_features=256, out_features=256, bias=True)
    (3): ReLU()
    (4): Linear(in_features=256, out_features=64, bias=True)
  )
  (vae_decoder): Sequential(
    (0): Linear(in_features=288, out_features=256, bias=True)
    (1): ReLU()
    (2): Linear(in_features=256, out_features=256, bias=True)
    (3): ReLU()
    (4): Linear(in_features=256, out_features=32, bias=True)
  )
  (prior_net): Sequential(
    (0): Linear(in_features=256, out_features=256, bias=True)
    (1): ReLU()
    (2): Linear(in_features=256, out_features=64, bias=True)
  )
)

Epoch 0 | Update 1 | ELBO: 27.3025 | ReconNLL: 16.2988 | KL: 0.2945 | ActionFM: 10.7092 | Grad: 5.6780 | Valid steps: 15360.0
Epoch 1 | Update 2 | ELBO: 26.9855 | ReconNLL: 16.0840 | KL: 0.2029 | ActionFM: 10.6986 | Grad: 4.9590 | Valid steps: 15360.0
Epoch 2 | Update 3 | ELBO: 26.6598 | ReconNLL: 15.7876 | KL: 0.1940 | ActionFM: 10.6783 | Grad: 5.2879 | Valid steps: 15360.0
…
