…
Namespace(env='ShellGamePush-v0', model='ShellGamePush-v0_cvae_mikasa_last5_v6_1', seed=1, log_interval=1, save_interval=50, data_path='data/collect_ShellGamePush-v0.pt', save_dir='storage_cvae', num_episodes=None, rep_model_path='storage/ShellGamePush-v0_last5/final_model.pt', optim_eps=1e-08, epochs=10000, batch_size=256, lr=0.0003, latent_dim=32, beta=1.0, lambda_action=1.0, state_sentinel=1000.0, state_sentinel_replace=1.0)

Device: cuda

Loading data from data/collect_ShellGamePush-v0.pt...
Data shapes:
  obss: torch.Size([5000, 90, 128, 128, 3])
  states: torch.Size([5000, 90, 18])
Loading Rep Model from storage/ShellGamePush-v0_last5/final_model.pt
Model loaded:
BeliefVAEModel(
  (history_model): HistoryEncoder(
    (image_conv): ImageEncoder(
      (cnn): Sequential(
        (0): Conv2d(3, 32, kernel_size=(8, 8), stride=(4, 4))
        (1): ReLU()
        (2): Conv2d(32, 64, kernel_size=(4, 4), stride=(2, 2))
        (3): ReLU()
        (4): Conv2d(64, 64, kernel_size=(3, 3), stride=(1, 1))
        (5): ReLU()
        (6): Flatten(start_dim=1, end_dim=-1)
      )
      (fc): Sequential(
        (0): Linear(in_features=9216, out_features=512, bias=True)
        (1): ReLU()
      )
    )
    (memory_rnn1): GRUCell(512, 256)
    (memory_rnn2): GRUCell(256, 256)
    (memory_rnn3): GRUCell(256, 256)
    (predictor): Sequential(
      (0): Linear(in_features=768, out_features=256, bias=True)
      (1): ReLU()
      (2): Linear(in_features=256, out_features=256, bias=True)
    )
  )
  (vae_encoder): Sequential(
    (0): Linear(in_features=272, out_features=256, bias=True)
    (1): ReLU()
    (2): Linear(in_features=256, out_features=256, bias=True)
    (3): ReLU()
    (4): Linear(in_features=256, out_features=64, bias=True)
  )
  (vae_decoder): Sequential(
    (0): Linear(in_features=288, out_features=256, bias=True)
    (1): ReLU()
    (2): Linear(in_features=256, out_features=256, bias=True)
    (3): ReLU()
    (4): Linear(in_features=256, out_features=32, bias=True)
  )
  (prior_net): Sequential(
    (0): Linear(in_features=256, out_features=256, bias=True)
    (1): ReLU()
    (2): Linear(in_features=256, out_features=64, bias=True)
  )
)

Epoch 0 | Update 1 | ELBO: 2628.3845 | ReconNLL: 2452.9121 | KL: 164.2238 | ActionFM: 11.3734 | Grad: 55941.3336 | Valid steps: 23040.0
Epoch 1 | Update 2 | ELBO: 1124.9503 | ReconNLL: 966.6082 | KL: 147.3206 | ActionFM: 11.1458 | Grad: 19638.6983 | Valid steps: 23040.0
Epoch 2 | Update 3 | ELBO: 666.0361 | ReconNLL: 521.0415 | KL: 134.1413 | ActionFM: 10.9754 | Grad: 7808.8716 | Valid steps: 23040.0
…
